simple ML model with seperate testing and training script/model.pt (torch, 3060 bytes, 6 tensors)

fc1.weight f4 [10, 7]
000000 3e dd 7a 3e e5 70 46 be 18 68 9a 3c 0c 31 bd bc
       0.2449846 -0.19379003 0.018848464 -0.023094676
000010 df 79 f3 3d 9d 72 4c be 30 9d 3a be ca d5 81 be
       0.118884794 -0.19965596 -0.18224025 -0.2535842
000020 00 07 33 be c4 23 7b be 9c be b5 be e3 42 28 be
       -0.17483139 -0.24525362 -0.35496986 -0.16431765
000030 6e 0d df 3d b1 48 be be b5 36 ca bd 70 d5 37 3e
       0.108912334 -0.37164834 -0.09873716 0.17952514
000040 b8 73 b9 3e b7 aa 13 be 7c 79 b0 3e ba 96 45 bd
       0.362211 -0.14420591 0.34467685 -0.048239447
000050 8b 0a 3b be c2 d6 a4 3d 22 95 90 be 25 54 a1 3d
       -0.1826574 0.08048774 -0.2823878 0.078773774
000060 2b 09 70 be 13 fd 97 be 5a 2b 3d 3d 78 65 93 be
       -0.23440997 -0.29685268 0.04618392 -0.28788352
000070 f2 fb 11 3d 57 a9 7e be 93 de 53 be 50 6d 6e 3e
       0.035640664 -0.24869286 -0.20690374 0.23283887
000080 30 4c 05 3e b4 18 51 be c9 d4 49 be 14 e4 df bd
       0.13017344 -0.2041958 -0.19710077 -0.10932174
000090 9f f3 86 3e 48 e8 26 bd a1 dd 52 3e 5b 9b 80 bc
       0.26357743 -0.040748864 0.20592357 -0.01569908
0000a0 cc f0 07 bd 30 26 98 3e 0d cd ed 3d bd 99 4b 3e
       -0.033188626 0.29716635 0.11611376 0.19882865
0000b0 30 f2 af be d5 a9 37 3e ce 07 c4 3d 45 82 6f be
       -0.34364462 0.1793588 0.09571801 -0.23389538
0000c0 52 0f 9b be 71 64 4d bd f2 26 b9 3d 8f 48 a4 3d
       -0.30285126 -0.050144617 0.09040631 0.08021652
0000d0 d8 99 76 be eb 21 87 3e 88 81 6b 3e ce d9 2f be
       -0.24082124 0.26393065 0.22998631 -0.1717293
0000e0 28 95 99 3e d9 40 6d be d1 86 fe bc c5 02 0c 3e
       0.2999661 -0.23169269 -0.031070145 0.13672931
0000f0 cb 83 9c 3e 2a 2a 58 3e 1b a5 16 3e b1 02 9e be
       0.305693 0.21109834 0.1471142 -0.30861428
000100 10 ce 94 3d fa 5f ac be a6 18 50 be 2f 7e 5d 3e
       0.07265866 -0.33666974 -0.20321903 0.21630166
000110 91 62 a5 be 8a c4 97 be
       -0.32301763 -0.29642135

fc1.bias f4 [10]
000000 a7 2c 8b bd b7 4f f1 3d 61 9e b6 be 23 15 bb bd
       -0.06795626 0.117827825 -0.3566771 -0.09134891
000010 f8 2a af bd b8 36 f6 bc 4f cf 3b 3e 61 35 3d be
       -0.085531175 -0.030055389 0.183408 -0.18477394
000020 8e d2 93 be 8d f6 b3 be
       -0.28871578 -0.3514904

fc2.weight f4 [8, 10]
000000 f5 e1 d1 bb 09 ed 70 3e bb 4f 1c be f2 ad 28 be
       -0.00640511 0.23527922 -0.1526479 -0.16472605
000010 f2 b8 21 3e 27 ac 3e be a7 d7 e7 bc 65 79 7e be
       0.15793207 -0.18620358 -0.028301073 -0.24850996
000020 fe a2 c7 3c 49 ff 57 3e a0 1a 1c bd fa 4b 38 be
       0.024369713 0.21093477 -0.03811133 -0.17997733
000030 6e 26 54 be 60 e8 ad 3c 08 18 42 bd 8d bd 19 be
       -0.20717785 0.02122897 -0.0473862 -0.15013714
000040 22 69 c9 bd be 88 1e be 52 d1 cb bd cd 3b 8c 3e
       -0.098345056 -0.1548185 -0.09952034 0.27389374
000050 2a 81 9f be 9d 9c 74 3d 6b cd 0b bd 0c 13 97 3e
       -0.31153232 0.05971967 -0.03413145 0.2950672
000060 cd c5 9a 3e 25 61 5a 3e 6a 26 73 be 1f ce b9 bd
       0.30229035 0.2132612 -0.23745123 -0.090725176
000070 0e c8 9b be 34 fd e1 bd d0 67 9f bd 8c b0 90 be
       -0.30426067 -0.11034623 -0.077834725 -0.28259695
000080 7c 2d 6f bc 29 55 0a be 01 ce 81 be ab c9 87 3e
       -0.014598247 -0.13509049 -0.2535248 0.26521048
000090 aa c2 25 3c c9 88 4b be 85 47 df 39 a3 f5 04 3e
       0.010117212 -0.19876398 0.0004258716 0.12984328
0000a0 2a de 43 3e dc 9d 49 be 80 06 8f be cf db 68 bc
       0.19127718 -0.19689125 -0.27934647 -0.014212563
0000b0 f0 58 62 3c d8 96 0f 3e e8 5b 0f be b9 1b 55 3e
       0.01381515 0.14022386 -0.13999903 0.20811357
0000c0 3c 85 77 3d fa b9 1e 3e c1 32 3b 3e 28 30 8e bd
       0.060429797 0.15500632 0.1828108 -0.06942779
0000d0 e0 91 c2 3d 86 07 89 be 1f f7 43 3e a2 3c e6 bd
       0.0950048 -0.26763552 0.19137238 -0.112420335
0000e0 8e 92 81 3e cd 3c 84 3e e4 b2 20 be 69 41 52 be
       0.25307125 0.25827637 -0.15693241 -0.20532764
0000f0 cc 68 d3 3d 60 59 73 bc 77 34 60 be 19 89 0b be
       0.10322723 -0.014852852 -0.21895014 -0.13626517
000100 b8 39 88 3d a8 ad 73 3d e0 3c 08 3c 40 b0 52 be
       0.06651634 0.059491783 0.008315295 -0.20575047
000110 9c 00 93 bd 28 f3 52 3d 47 e7 39 3d c8 92 fc bd
       -0.071778506 0.051501423 0.04538658 -0.12332684
000120 a3 1c 8e be 1e bf 3d 3e 8d 5b 87 bd 0f 32 57 be
       -0.27756223 0.18529937 -0.06609259 -0.2101519
000130 b4 29 88 3e 07 bc d3 bd 7b a1 28 be e0 4e 1e 3d
       0.26594317 -0.10338598 -0.1646785 0.03864944

fc2.bias f4 [8]
000000 0d 7a 2b 3e 5c aa 8c bd ba 31 8e 3e 93 05 02 be
       0.16745777 -0.06868431 0.27772313 -0.12697439
000010 20 9e 4b be 1b 7b c5 bd 96 09 14 be 29 e6 17 3e
       -0.19884539 -0.09642621 -0.14456782 0.14833893

fc3.weight f4 [2, 8]
000000 d7 af cb bd 1c 3a a2 bd ca ce 89 be 18 a3 80 be
       -0.09945648 -0.0792124 -0.2691558 -0.2512443
000010 13 60 82 3e a1 8c 42 3e 48 dc 36 be 18 d1 36 be
       0.25463924 0.18998958 -0.17857468 -0.178532
000020 97 c7 92 be f8 71 aa be 3c f0 9a be 43 2c 17 bd
       -0.286679 -0.33290076 -0.3026141 -0.036907446
000030 29 59 80 3d 93 74 54 be 40 59 b0 bd b0 aa 31 3e
       0.06267006 -0.20747595 -0.08610773 0.17350268

fc3.bias f4 [2]
000000 2b 48 76 3d a5 8b ab be
       0.06012742 -0.33504978
