simple ML model with online-method drift/model.pt (torch, 3060 bytes, 6 tensors)

fc1.weight f4 [10, 7]
0.24995911 -0.5399288 0.2829161 -0.065893516 -0.017661856 -0.40047875 -0.37539235 -0.3518102
0.29808447 -0.29468045 0.26472685 0.14574213 -0.16861868 0.056380495 -0.25054154 -0.60958976
0.0056388373 0.070025384 -0.06350307 0.3335393 0.43718284 0.44568506 0.1413575 0.23737079
0.44057253 0.13492738 -0.23793046 -0.20546925 0.04285647 0.19793491 0.29933938 -0.34436524
-0.18128386 -0.35467833 -0.26697257 0.44235498 -0.25669807 0.16451634 0.16107601 0.04216447
-0.28569332 -0.06753457 0.0066217734 0.2864004 0.14493428 0.09094469 -0.44108996 0.48407108
0.15410246 0.116306745 0.32080904 0.43518862 -0.018112142 -0.11496766 0.16482092 -0.22439824
0.15366344 -0.2635318 -0.15534726 0.26837823 -0.5149791 0.27277094 0.17075413 0.33798146
0.374779 0.053580564 0.30735055 0.21578951 -0.097026356 0.26685196
00000000: 48f5 7f3e c638 0abf 61da 903e 2ef3 86bd
00000010: 99af 90bc 8d0b cdbe 6d33 c0be 7720 b4be
00000020: 879e 983e 5be0 96be 478a 873e 6d3d 153e
00000030: 60aa 2cbe 3cef 663d fb46 80be 130e 1cbf
00000040: ffc5 b83b 7869 8f3d e60d 82bd aac5 aa3e
00000050: 6ed6 df3e d530 e43e 05c0 103e 5411 733e
00000060: b992 e13e 672a 0a3e 0ba4 73be 8866 52be
00000070: 448a 2f3d 73af 4a3e 0343 993e a450 b0be
00000080: 7aa2 39be 6698 b5be a1b0 88be 5a7c e23e
00000090: ee6d 83be f976 283e 1cf1 243e a7b4 2c3d
000000a0: 6546 92be 914f 8abd 76fb d83b 13a3 923e
000000b0: a769 143e 3641 ba3d 8bd6 e1be 2ad8 f73e
000000c0: 09cd 1d3e 3b32 ee3d 1541 a43e 0bd1 de3e
000000d0: ea5f 94bc 2a74 ebbd d1c6 283e a7c8 65be
000000e0: f359 1d3e a4ed 86be 5a13 1fbe df68 893e
000000f0: acd5 03bf a2a8 8b3e 2cda 2e3e e80b ad3e
00000100: 08e3 bf3e 4b77 5b3d 0d5d 9d3e edf7 5c3e
00000110: c1b5 c6bd d2a0 883e

fc1.bias f4 [10]
0.5007894 0.30962825 -0.22544548 0.21343094 0.56640935 0.5290897 -0.17377998 0.20191287
-0.017447328 -0.18804748
00000000: bc33 003f 9887 9e3e 2edb 66be a48d 5a3e
00000010: 3400 113f 6c72 073f 61f3 31be 3fc2 4e3e
00000020: b3ed 8ebc 858f 40be

fc2.weight f4 [8, 10]
-0.25705272 -0.0671942 -0.026912242 -0.24605274 0.10745653 0.022454005 -0.3393096 0.15026754
0.030260378 -0.26894304 -0.43316084 0.20167819 -0.43539745 -0.12865302 0.34399754 -0.4396303
0.48925194 0.1671408 0.05729519 0.024828864 0.14022695 0.059801377 0.2647016 0.22355402
0.15371548 0.1645987 -0.034875777 -0.07637285 0.25576866 0.20819056 -0.17340787 0.16912806
-0.30576468 -0.088272505 0.054436866 -0.41703075 0.5697931 0.35254586 -0.32959226 0.09644978
0.38951242 -0.012325244 0.019934477 0.26559588 0.31937373 0.4087045 -0.20759214 0.16203962
0.25448868 0.1772581 -0.45845124 0.4244614 0.12946981 0.07920451 0.23517992 -0.40806928
0.5168005 0.14616328 -0.44713998 -0.10017115 0.36181507 -0.46702135 0.35411212 -0.123537034
0.11992034 0.11219037 -0.13763405 -0.21571286 0.33874223 -0.2811515 0.1243248 -0.22115667
0.24643071 0.20117734 0.21961622 0.41533864 0.07887634 -0.06681267 0.22866845 0.2975903
00000000: 6a9c 83be 1d9d 89bd 1077 dcbc 40f5 7bbe
00000010: 2b12 dc3d 76f1 b73c fdb9 adbe bcdf 193e
00000020: 9de4 f73c e7b2 89be 42c7 ddbe ba84 4e3e
00000030: 6aec debe 9ebd 03be 7220 b03e 3917 e1be
00000040: 3b7f fa3e f526 2b3e 5cae 6a3d e765 cb3c
00000050: a797 0f3e 4af2 743d f886 873e 58eb 643e
00000060: 9767 1d3e 908c 283e e7d9 0ebd 5e69 9cbd
00000070: 1cf4 823e e82f 553e d591 31be e82f 2d3e
00000080: 308d 9cbe 37c8 b4bd 31f9 5e3d 0e85 d5be
00000090: f6dd 113f e480 b43e 51c0 a8be 7687 c53d
000000a0: 2c6e c73e d2ef 49bc a14d a33c 2ffc 873e
000000b0: f484 a33e b741 d13e 0993 54be b7ed 253e
000000c0: 574c 823e 2683 353e 1fba eabe 0153 d93e
000000d0: bc93 043e f935 a23d 01d3 703e 75ee d0be
000000e0: 0a4d 043f d4ab 153e 88ef e4be 8826 cdbd
000000f0: d33f b93e 6c1d efbe 2f4e b53e fc00 fdbd
00000100: cc98 f53d 11c4 e53d f1ef 0cbe d5e3 5cbe
00000110: 9f6f ad3e 17f3 8fbe 009e fe3d e576 62be
00000120: 5558 7c3e 6f01 4e3e 13e3 603e 44a7 d43e
00000130: eb89 a13d 15d5 88bd 1028 6a3e c15d 983e

fc2.bias f4 [8]
-0.1544683 0.38356978 -0.18765369 0.055037532 -0.15312988 0.4787159 0.3335922 0.023971431
00000000: f02c 1ebe 4263 c43e 4a28 40be 096f 613d
00000010: 14ce 1cbe 401a f53e 99cc aa3e bc5f c43c

fc3.weight f4 [2, 8]
-0.10994609 -0.44535932 0.23295456 -0.30401444 0.039830822 -0.32392192 0.30576846 0.31281215
-0.16260159 0.30286476 -0.4999609 0.7953907 -0.43934754 0.42147386 -0.45650962 -0.16787958
00000000: 6a2b e1bd 2306 e4be a48b 6e3e c8a7 9bbe
00000010: a525 233d 18d9 a5be af8d 9c3e ea28 a03e
00000020: 0881 26be 1711 9b3e e0fa ffbe ba9e 4b3f
00000030: 29f2 e0be 6ccb d73e a1bb e9be a0e8 2bbe

fc3.bias f4 [2]
-0.24375947 -0.16284584
00000000: 159c 79be 0fc1 26be
